DeepCNN.pt (torch, 121151 bytes, 8 tensors)

weight f4 [8, 3, 3, 3]
0	0x3eb6da6b	0.35713515
1	0x3c83e953	0.016102469
2	0xbb50a8ad	-0.003183882
3	0x3eeac233	0.45851287
4	0x3ba27c4e	0.004958666
5	0x3e79463a	0.24343196
6	0x3e814b22	0.25252634
7	0x3eafaed1	0.34313062
8	0x3e10ed7c	0.14153093
9	0xbdeffd18	-0.11718196
10	0xbe3d7816	-0.1850284
11	0xbe8767e5	-0.26446453
12	0x3d4a94ed	0.049458433
13	0xbe86bf85	-0.26317993
14	0xbe67c390	-0.22633195
15	0xbdc519f8	-0.09624094
16	0xbd9f99a2	-0.07792975
17	0xbe4c4875	-0.19949515
18	0x3e5654ae	0.2093074
19	0xbd05ef5c	-0.032698974
20	0xbe4b6e7e	-0.19866368
21	0xbd3b4271	-0.04571766
22	0xbdfa8f7e	-0.122344
23	0xbe4471ac	-0.19183987
24	0xbcf06bd3	-0.02934829
25	0x3c193f8b	0.009353529
26	0x3cb3ea75	0.021962384
27	0x3e7574f4	0.23970395
28	0xbe791df0	-0.24327826
29	0x3cc7aab0	0.024373382
30	0x3e5359b7	0.20639692
31	0x3e6fd783	0.23422055
32	0x3ba30ad2	0.004975655
33	0x3c417d61	0.011809678
34	0xbe01f2ac	-0.12690228
35	0xbe536f57	-0.20647942
36	0x3e65e29a	0.22449723
37	0xbe390611	-0.1806872
38	0xbdf1efd7	-0.11813324
39	0xbc14d388	-0.009083636
40	0x3e210b47	0.15726958
41	0xbe988afe	-0.29793543
42	0x3e82235b	0.254176
43	0xbceac7af	-0.02865967
44	0xbea136ee	-0.3148722
45	0x3e49e0c8	0.19714653
46	0xbe3b029d	-0.18262716
47	0xbd738718	-0.059455007
48	0x3d98bd79	0.07458014
49	0x3cc935ab	0.024561724
50	0xbe9b6a50	-0.30354548
51	0x3d8eeb34	0.06978455
52	0x3e18fef6	0.1494101
53	0xbe270683	-0.16311078
54	0x3edd0437	0.43167278
55	0x3efbc31b	0.4917229
56	0x3e3eb450	0.18623471
57	0xbe90efbf	-0.28307912
58	0x3eba0c32	0.3633743
59	0x3dddff2b	0.10839685
60	0xbf2ae483	-0.6675493
61	0x3db37367	0.087622456
62	0xbdf81036	-0.12112467
63	0x3e945e6f	0.28978297
64	0x3db6221f	0.08893227
65	0x3cdc2ead	0.026877725
66	0xbe900681	-0.28129962
67	0x3e09f0b3	0.13470726
68	0xbe6a0a23	-0.2285543
69	0xbf35f879	-0.71082264
70	0x3cd96f75	0.026542405
71	0xbea0db5b	-0.31417355
72	0x3e77f15b	0.24213164
73	0x3e3b5926	0.18295726
74	0x3d76cdc9	0.060254846
75	0xbd6b02f4	-0.057375863
76	0x3e96d772	0.29461247
77	0x3d8a4f9a	0.06753464
78	0xbeef1870	-0.46698332
79	0x3e81092d	0.25202313
80	0xbe7ba873	-0.24575977
81	0xbe980c09	-0.29696682
82	0xbe3a0f71	-0.18169953
83	0xbe3177e5	-0.17330892
84	0x3dab6650	0.08369124
85	0xbe74730c	-0.23872012
86	0xbea87c71	-0.3290744
87	0x3ea9f61f	0.33195588
88	0x3df99d64	0.12188223
89	0x3e331fc3	0.17492585
90	0xbe10508a	-0.14093223
91	0xbebc4ebd	-0.36778823
92	0xbe0bb792	-0.13644245
93	0xbd1c5d8f	-0.038175162
94	0xbe93112c	-0.2872404
95	0xbe9264e0	-0.28592587
96	0x3e0748f1	0.13211419
97	0x3daac2d9	0.083379455
98	0xbdf4b625	-0.11948804
99	0xbd19824d	-0.03747778
100	0x3e639b90	0.22227311
101	0x3d863e56	0.065548584
102	0x3e66f54b	0.2255451
103	0x3e321e73	0.17394428
104	0xbd64b68a	-0.055838145
105	0x3ca7fd0d	0.020506406
106	0x3ec7a25b	0.38991055
107	0x3e16c32f	0.14722894
108	0x3d0df5a5	0.034658093
109	0xbc081fe1	-0.008308382
110	0xbd65daa5	-0.05611672
111	0x3e5bd6a9	0.21468605
112	0x3eb44b45	0.35213676
113	0xbdf14ecb	-0.11782607
114	0x3d5721c2	0.05252243
115	0x3ebba080	0.3664589
116	0x3e24e8e5	0.16104467
117	0xbc3060cb	-0.010765265
118	0xbe583c54	-0.21116763
119	0xbe86ccdf	-0.2632818
120	0xbddfc1fd	-0.10925672
121	0x3e10d236	0.14142689
122	0x3e2e1845	0.17001446
123	0xbe447a9c	-0.19187397
124	0x3e7757d9	0.24154605
125	0xbe0ee47b	-0.13954346
126	0xbe901376	-0.28139848
127	0xbdb655ac	-0.08903059
128	0x3c1d5678	0.009603135
129	0x3e42573e	0.18978593
130	0xbbcfc8d5	-0.0063410797
131	0x3c962a3f	0.018330691
132	0x3dc96288	0.098332465
133	0x3e841bec	0.25802553
134	0x3da12081	0.07867528
135	0x3d7b4fb4	0.061355308
136	0x3dca413e	0.09875725
137	0x3e6ebbc7	0.23313819
138	0xbea0e81c	-0.31427085
139	0xbe97f9bb	-0.29682717
140	0x3d868b44	0.065695316
141	0xbe023458	-0.1271528
142	0xbe5b67cb	-0.21426313
143	0x3e802de4	0.25035012
144	0x3d8deccd	0.06929932
145	0xbb8df325	-0.0043319636
146	0x3e9da857	0.30792496
147	0xbbe7c1ad	-0.0070726485
148	0x3d814425	0.06311826
149	0x3eb37b0e	0.3505482
150	0xbcd3234c	-0.025773667
151	0x3e4ab605	0.19795997
152	0x3e7a2ddb	0.24431555
153	0xbe826c6f	-0.25473353
154	0xbeb76f36	-0.35827035
155	0xbd79ac15	-0.060955126
156	0xbec6d781	-0.3883629
157	0xbe97bdd6	-0.2963702
158	0x3e72ba3b	0.23703854
159	0xbe467557	-0.19380699
160	0xbe82b382	-0.2552758
161	0x3e838147	0.25684568
162	0x3dc9029c	0.09814951
163	0x3df8f8db	0.121568404
164	0xbe15401a	-0.14575234
165	0x3d2a37f3	0.041557264
166	0xbdbdb8f9	-0.09263796
167	0xbdbfb201	-0.093601234
168	0xbe139cce	-0.14415285
169	0xbdc2f64d	-0.095196344
170	0xbd8e1a82	-0.0693865
171	0x3e6fbe22	0.23412374
172	0x3e199092	0.14996555
173	0x3de2947f	0.1106348
174	0x3e9fbda3	0.3119937
175	0x3e93cc54	0.28866827
176	0x3e49c949	0.1970569
177	0x3e0bf2a5	0.1366678
178	0xbc91296d	-0.017719949
179	0x3e82d0f0	0.25550032
180	0xbe00c30d	-0.12574406
181	0xbdf899b6	-0.12138693
182	0xbe98db5a	-0.29854852
183	0xbe0477da	-0.12936345
184	0xbe6c18f5	-0.23056395
185	0x3d5a9c46	0.05337169
186	0xbe3f7cb9	-0.18699922
187	0xbe3cffaf	-0.1845691
188	0xbd2ecc47	-0.042675283
189	0xbe7aa0e8	-0.24475443
190	0xbc8fbd73	-0.017546391
191	0xbe1cd01b	-0.15313761
192	0xbe4894ff	-0.19588087
193	0xbdc23045	-0.09481863
194	0x3d65a5f6	0.056066476
195	0xbea5fee8	-0.3242104
196	0xbdd592e7	-0.1042841
197	0xbda667ae	-0.08125244
198	0x3e42d6f3	0.19027309
199	0xbdabb438	-0.083839834
200	0x3dc65fd2	0.09686245
201	0xbda7c54b	-0.081919275
202	0x3e62d678	0.22152126
203	0xbb83e28f	-0.0040248106
204	0x3dba059e	0.09083103
205	0xbcdcc57c	-0.026949637
206	0xbd8804ce	-0.066415414
207	0x3dc30dc9	0.09524114
208	0x3e42deb3	0.19030266
209	0x3e7a3bde	0.244369
210	0x3e471fd3	0.19445734
211	0x3e66bacd	0.22532196
212	0x3b751176	0.003739444
213	0x3e4c2ecc	0.19939727
214	0x3e63d51c	0.22249264
215	0x3e456431	0.19276501

bias f4 [8]
0	0x3dd42d0a	0.10360153
1	0xbde24112	-0.110475674
2	0xbd611834	-0.054954723
3	0x3e4c1f07	0.19933711
4	0x3e653803	0.22384648
5	0x3df8be84	0.12145713
6	0xbd7a6c72	-0.061138578
7	0x3e0d6ea5	0.13811739

weight f4 [16, 8, 3, 3]
0	0x3d7dbd45	0.06194808
1	0xbd5891c3	-0.052873384
2	0x3ba02864	0.0048876274
3	0x3dbb0823	0.09132411
4	0x3e0f64ac	0.14003247
5	0x3e3dc073	0.18530445
6	0xbcbf0405	-0.023317346
7	0xbcd1133b	-0.025521865
8	0x3e5c8b19	0.21537437
9	0xbd6e42ed	-0.058169294
10	0xbdc7cac7	-0.097554736
11	0xbb12e25b	-0.002241275
12	0xbde2fdbb	-0.110835515
13	0x3d31d03b	0.043411475
14	0x3d7429ec	0.059610292
15	0xbde8199c	-0.113330096
16	0xbdf5cab0	-0.1200155
17	0xbc3cacb6	-0.011515787
18	0xbd8f322a	-0.0699199
19	0xbe17508b	-0.14776818
20	0xbe62819b	-0.22119753
21	0xbd1d5019	-0.038406465
22	0xbe38999d	-0.18027349
23	0xbe32da80	-0.17466164
24	0xbd8b781b	-0.06810018
25	0x3db63a76	0.08897869
26	0x3d38ff98	0.04516563
27	0xbc8db145	-0.017296443
28	0x3c97975d	0.018504793
29	0x3dc4e4d9	0.09613962
30	0x3c956fbe	0.01824176
31	0xbd6d10a6	-0.057877205
32	0x3dd5a49a	0.10431786
33	0x3ce20cea	0.027594049
34	0xbd12c8de	-0.035836093
35	0xbbb8d595	-0.0056406953
36	0x3e6c1d63	0.23058085
37	0x3e5c6707	0.21523677
38	0xbd8e31db	-0.06943103
39	0x3e5eeb95	0.21769555
40	0x3dfca71f	0.12336563
41	0xbdcedcb6	-0.10100691
42	0x3d3c5d30	0.045987308
43	0xbdd5f75d	-0.104475714
44	0x3c48782e	0.012235684
45	0xbddf2231	-0.10895193
46	0xbd691ef5	-0.05691429
47	0xbd3b294c	-0.04569368
48	0xbd2445e4	-0.040105715
49	0xbc9ab4f6	-0.018885117
50	0xbe18658e	-0.1488249
51	0xbdd00415	-0.101570286
52	0xbe4b3e24	-0.19847924
53	0xbdb3739e	-0.087622866
54	0xbddefd45	-0.10888151
55	0xbd43fb5a	-0.04784713
56	0xbd815f62	-0.06317021
57	0x3c09075d	0.008363572
58	0x3d8f0890	0.06984055
59	0x3c6c8c59	0.014437758
60	0xbd61f82a	-0.05516831
61	0xbd9376a1	-0.07200361
62	0xbddcb7ff	-0.10777282
63	0x3df70541	0.12061549
64	0xbca839a2	-0.020535294
65	0xbc944b7e	-0.018102404
66	0x3c66f6d0	0.014096931
67	0xbdb7c728	-0.08973533
68	0xbb8ee9c0	-0.0043613613
69	0x3d82b8be	0.06382893
70	0xbcc56e50	-0.024100453
71	0xbe1932b7	-0.14960752
72	0xbd3ac326	-0.045596264
73	0x3bb5c574	0.00554722
74	0xbd88251c	-0.06647703
75	0xbd7b5283	-0.061357986
76	0xbc5cd3d6	-0.01347824
77	0xbd07130d	-0.032977153
78	0x3d11081c	0.035408124
79	0xbcca52c1	-0.024697663
80	0xbc5c300a	-0.013439188
81	0xbd261d20	-0.04055512
82	0xbdd92a3e	-0.1060376
83	0x3dd312e2	0.10306336
84	0x3cd9ef01	0.026603224
85	0x3ddf04d6	0.10889594
86	0xbc976874	-0.018482424
87	0xbce03bd7	-0.027372284
88	0xbddd7f9b	-0.108153544
89	0xbd309034	-0.043106273
90	0x3da12eb7	0.07870238
91	0xbdf45d67	-0.119318776
92	0xbd27f7b0	-0.041007698
93	0x3d8985d9	0.067149825
94	0x3d7ec2f1	0.06219763
95	0x3d241022	0.040054448
96	0xbcf9c33c	-0.030488603
97	0xbc66aae7	-0.014078832
98	0xbce579c5	-0.028012166
99	0xbd1b4db8	-0.037915915
100	0x3d64f6c7	0.055899408
101	0xbd111c2b	-0.035427254
102	0xbd83b6e8	-0.06431371
103	0x3cf600bd	0.030029649
104	0xbda7c36d	-0.081915714
105	0xbcafc82a	-0.02145775
106	0x3d846a4f	0.06465589
107	0x3d3f0450	0.046634972
108	0x3dd9128e	0.10599242
109	0xbda4e08d	-0.08050642
110	0x36681f08	3.4588757e-06
111	0xbcebfcd1	-0.028807076
112	0xbd846426	-0.06464414
113	0xbd874695	-0.06605259
114	0x3d162857	0.036659565
115	0x3c716fcf	0.01473613
116	0xbd75a070	-0.05996746
117	0xbda8ffb3	-0.08251896
118	0xbdc2afac	-0.09506163
119	0x3dfa69fc	0.12227246
120	0xbca62def	-0.020285575
121	0xbccb55c5	-0.024821172
122	0xbd16dfa7	-0.036834385
123	0xbd70a374	-0.05874963
124	0xbdd8367a	-0.105572656
125	0xbd835897	-0.064133815
126	0x3d93d60f	0.07218563
127	0x3cdf5ad4	0.02726499
128	0xbd222609	-0.039587054
129	0xbd31675d	-0.043311466
130	0x3d9f88e6	0.07789783
131	0x3db4f65b	0.08836051
132	0x3dedb977	0.1160764
133	0x3d19c570	0.037541807
134	0x3d78cc1e	0.060741536
135	0xbc16836b	-0.009186606
136	0xbd90ed30	-0.0707649
137	0xbdef0dbf	-0.11672544
138	0x3d972110	0.07379353
139	0xbc93569d	-0.017985636
140	0x3d42fbe4	0.047603503
141	0x3c12315f	0.008922904
142	0xbddfc3ca	-0.10926016
143	0xbd6cd61c	-0.057821378
144	0x3d7f3bf7	0.062313046
145	0xbd75d203	-0.060014736
146	0xbe280e0f	-0.16411613
147	0x3e09efaa	0.13470331
148	0x3cb72862	0.022358123
149	0xbd9c3dd5	-0.07628981
150	0x3e2f3d3d	0.17113204
151	0x3dcee583	0.1010237
152	0xbc9fe45c	-0.01951807
153	0x3e3ec205	0.186287
154	0x3d8cbc25	0.06871823
155	0xbc05ef37	-0.008174709
156	0x3d23368d	0.039846946
157	0xbdc4e4f2	-0.0961398
158	0x3d6dddff	0.05807304
159	0x3c9d4aad	0.019200647
160	0xbd5e835e	-0.0543245
161	0x3d82020f	0.06348049
162	0x3b3adba7	0.002851227
163	0x3d39321f	0.045213815
164	0x3df60a78	0.120137155
165	0xbdd26b15	-0.102743305
166	0xbd2450ee	-0.040116243
167	0x3e322562	0.17397073
168	0xbc1f9655	-0.009740432
169	0xbdef20ba	-0.11676164
170	0x3e181f54	0.148557
171	0x3e068dc3	0.13140015
172	0x3e45be18	0.19310796
173	0x3dceb64a	0.10093363
174	0x3e7b9b35	0.24570926
175	0x3e4b37d0	0.1984551
176	0x3cb047a8	0.021518543
177	0x3e1a090c	0.15042514
178	0x3dbfcdd0	0.093654275
179	0xbccb0356	-0.024781864
180	0xbd4f002b	-0.05053727
181	0xbe171cba	-0.14757052
182	0xbd7f5ac8	-0.062342435
183	0x3c51d362	0.012806745
184	0x3e167b82	0.14695552
185	0x3cb045ab	0.021517595
186	0x3e1cf793	0.15328817
187	0x3e594c7d	0.21220584
188	0x3e226ca4	0.15861756
189	0xbdfcee24	-0.12350109
190	0x3dbfea3d	0.09370849
191	0x3d9fd8b4	0.07805005
192	0xbe424ac7	-0.18973838
193	0x3df3d570	0.11905944
194	0xbd70f1d0	-0.05882436
195	0xbe1523c4	-0.14564425
196	0xbe0d7651	-0.13814665
197	0x3da4bb3d	0.08043525
198	0x3b822994	0.0039722417
199	0x3dc0cf5b	0.0941455
200	0x3a908aa6	0.0011027649
201	0x3d53bb22	0.051692136
202	0xbd83a831	-0.06428564
203	0xbdf1d1b1	-0.118075736
204	0x3d3978f8	0.04528138
205	0xbba2b21d	-0.0049650804
206	0xbc394bb6	-0.011309555
207	0xbdfdfe94	-0.124020725
208	0xbd1c4fcf	-0.03816205
209	0x3c1f004c	0.009704661
210	0x3d22c124	0.039734975
211	0xbda92ba8	-0.0826028
212	0x3d96a767	0.07356148
213	0x3d41ca00	0.047311783
214	0x3e02fd15	0.12791856
215	0x3de7d66d	0.11320195
216	0xbe20974b	-0.15682714
217	0x3d8daf69	0.069182225
218	0xbe067eac	-0.13134259
219	0x3d44656e	0.047948293
220	0xbd38ce8e	-0.04511886
221	0x3cdff45d	0.027338201
222	0xbd70126f	-0.05861133
223	0x3c80d4aa	0.015726406
224	0xbdab798f	-0.08372795
225	0xbdd5413c	-0.10412833
226	0x3cef095c	0.029179268
227	0x3d8fdbf5	0.07024375
228	0x3dc4be58	0.09606618
229	0xbd3c6e48	-0.04600361
230	0x3dbf2331	0.09332884
231	0x3d89b61a	0.06724186
232	0xbdae66a3	-0.0851567
233	0xbdc3d47b	-0.09562012
234	0x3e0767be	0.13223168
235	0x3d174b7b	0.03693722
236	0x3df01104	0.117219955
237	0xbe2f20a0	-0.17102289
238	0x3da7fea0	0.08202863
239	0x3ca1725b	0.01970785
240	0xbd95e551	-0.07319129
241	0x3d1202ac	0.03564708
242	0xbdb339e6	-0.087512776
243	0xbcaa920c	-0.020821594
244	0xbc120e6e	-0.008914573
245	0xbd59d3c8	-0.053180486
246	0x3d1aa8c1	0.037758593
247	0xbcc3423a	-0.02383529
248	0x3e159995	0.14609368
249	0x3e176604	0.1478501
250	0x3e047d88	0.12938511
251	0x3df6a0e2	0.12042405
252	0xbe30212c	-0.17200154
253	0x3d2f0339	0.042727683
254	0x3de6f194	0.11276546
255	0xbd8f3916	-0.0699331

bias f4 [16]
0	0x3ee416af	0.44548556
1	0x3c93b2b9	0.018029558
2	0xbe4a0db7	-0.19731794
3	0xbc10261e	-0.00879815
4	0x3eaba816	0.33526677
5	0xbe8a25fe	-0.2698211
6	0xbca5496f	-0.020176617
7	0x3e96201e	0.29321378
8	0xbd491cac	-0.04909961
9	0xbdbce7dc	-0.09223911
10	0xbdf4e33f	-0.11957406
11	0x3ecb6e9f	0.39732835
12	0x3e4af670	0.19820571
13	0x3e093f1b	0.13402979
14	0xbe7dee9e	-0.24798056
15	0xbaf0f605	-0.0018383866

weight f4 [32, 16, 3, 3]
0	0xbcbbfcb8	-0.022947654
1	0x3da59f7c	0.0808706
2	0xbda096f4	-0.07841292
3	0x3ce2328b	0.027611991
4	0xbdc2e7ed	-0.095168926
5	0xbd773769	-0.060355578
6	0xbcfc2f0d	-0.030784154
7	0xbc430691	-0.011903421
8	0xbd13a69b	-0.03604756
9	0xbd1809f5	-0.03711887
10	0xbd14189f	-0.036156293
11	0xbd4948d9	-0.04914174
12	0xbd653da4	-0.05596699
13	0xbd4a6570	-0.049413145
14	0x3daa1097	0.083039455
15	0xbd1de1c5	-0.03854539
16	0xbd8b4fc1	-0.06802321
17	0x3d70eaed	0.058817793
18	0x3cf9bf53	0.030486738
19	0x3d6501b1	0.055909816
20	0xbd9ac69a	-0.075574115
21	0xbdb29b99	-0.08721084
22	0xbd854781	-0.06507779
23	0xbcff90eb	-0.031197032
24	0x3b84029a	0.0040286304
25	0x3d4137b5	0.047172267
26	0x3dad263a	0.08454557
27	0xbdae116d	-0.084994175
28	0x3cd32a14	0.0257769
29	0xbd6edecb	-0.05831794
30	0x3d0cd77b	0.034385186
31	0x3d0587e5	0.032600302
32	0x3cd65b89	0.026166694
33	0x3d71a35b	0.05899368
34	0x3c3ec9bf	0.01164478
35	0x3db394ec	0.08768639
36	0x3ce23391	0.02761248
37	0x3da6b158	0.081392944
38	0x3d0593b2	0.032611556
39	0xbd084626	-0.033270024
40	0x3d76a83a	0.060219027
41	0x3c5b79e1	0.013395757
42	0x3da72473	0.08161249
43	0xbc481a19	-0.012213253
44	0x3da3ba8d	0.07994566
45	0xbd998719	-0.07496471
46	0x3ceb6431	0.028734298
47	0xbd9af3e5	-0.075660504
48	0x3d28b520	0.04118836
49	0xbb108503	-0.0022051937
50	0x3ceda512	0.029009376
51	0xbda03f24	-0.07824543
52	0xbdcb6a09	-0.09932334
53	0x3ceb5d68	0.028731063
54	0xbd09ff0c	-0.033690497
55	0x3d24e147	0.040253904
56	0xbd4e0696	-0.05029925
57	0xbca41729	-0.020030575
58	0x3bcd99e3	0.0062744482
59	0x3d50820c	0.050905272
60	0x3d7570db	0.05992208
61	0x3a85a821	0.0010197201
62	0xbc8ec0db	-0.017425945
63	0xbb96ea67	-0.0046055797
64	0x3d40a6a3	0.047033917
65	0xbd87a4c3	-0.06623223
66	0xbd193e62	-0.03741301
67	0xbdb57db0	-0.088618636
68	0x3b56f980	0.0032802522
69	0xbcf17be9	-0.02947803
70	0x3cbe211d	0.023209149
71	0x3d377fa9	0.04479948
72	0xbd96f7a2	-0.07371451
73	0xbd349cd9	-0.044094894
74	0xbb98f051	-0.00466732
75	0xbc12ea2b	-0.008966963
76	0xbcb689df	-0.022282539
77	0xbd4ab9fc	-0.049493775
78	0xbd49426e	-0.049135618
79	0x39891240	0.00026144274
80	0x3d9e4ec4	0.07729867
81	0xbc978cbb	-0.018499723
82	0x3d90d29f	0.07071423
83	0xbd8a7be3	-0.06761911
84	0x3c18eb1d	0.009333399
85	0xbd8546e3	-0.06507661
86	0xbdb04017	-0.08605974
87	0x3d36f85e	0.044670455
88	0xbc56033f	-0.013062297
89	0x3da1a146	0.078920886
90	0x3da7bea0	0.08190656
91	0xbd9eb135	-0.07748643
92	0x3ae2469d	0.0017263476
93	0xbc3a7b07	-0.011381871
94	0xbd4c749c	-0.049915895
95	0xbd7fc3f2	-0.062442727
96	0xbd1a7496	-0.03770884
97	0x3d0cad8e	0.034345202
98	0x3c4ecbc4	0.012621824
99	0x3d86da00	0.06584549
100	0x3c20812d	0.009796423
101	0x3d7d1867	0.06179085
102	0x3c2b5acd	0.01045866
103	0xbcee1060	-0.029060543
104	0xbc271d83	-0.010199907
105	0xbdc614ea	-0.09671958
106	0xbcc3b027	-0.023887707
107	0xbd3a3b83	-0.04546691
108	0xbc8857a1	-0.016643347
109	0xbcd318db	-0.025768688
110	0xbc4f72f8	-0.012661688
111	0xbcfcae86	-0.030844938
112	0x3cd9baad	0.026578272
113	0x3cb14ff3	0.021644568
114	0x3c89581f	0.016765652
115	0x3dded9c1	0.10881377
116	0x3dc2bda6	0.09508829
117	0x3d515bd3	0.05111296
118	0xbc185ca4	-0.009299431
119	0x3d30713b	0.043076735
120	0xbd4f0b07	-0.050547626
121	0x3d885f3b	0.06658789
122	0x3db0d767	0.08634835
123	0xbbdf1744	-0.0068081934
124	0x3d9cd3a0	0.07657552
125	0x3da358f9	0.079759546
126	0xba320905	-0.0006791505
127	0xbcfbd7ff	-0.030742643
128	0x3c9d6015	0.019210855
129	0x3d0a8d8a	0.03382639
130	0xbd913af2	-0.07091321
131	0x3c9d2afe	0.01918554
132	0xbc82af95	-0.015952865
133	0x3d6de15d	0.05807625
134	0x3c713bd2	0.014723735
135	0x3d97d649	0.074139185
136	0x3dc381b6	0.09546225
137	0xbc30c654	-0.010789473
138	0x3d12cb1d	0.035838235
139	0x3c4fe0d2	0.012687879
140	0xbcc5dd79	-0.024153458
141	0xbce6d5d2	-0.02817813
142	0x3cb322d8	0.0218672
143	0x3d1ab25b	0.03776775
144	0x3d087207	0.03331187
145	0x3c4c7232	0.012478398
146	0x3cd4c0b9	0.025970804
147	0x3d99a7a0	0.07502675
148	0x3cc8aab9	0.02449547
149	0xbcbb4f6d	-0.022865022
150	0xbda311bd	-0.07962368
151	0xbda2b0fc	-0.07943913
152	0xbde4cc8e	-0.11171828
153	0x3d5b31ce	0.053514294
154	0xbd968e01	-0.07351304
155	0xbd7c1b9d	-0.06154977
156	0x3d510079	0.05102584
157	0x3d3a8cdd	0.045544494
158	0xbda67b8b	-0.08129033
159	0x3d39881a	0.045295812
160	0xbcac0940	-0.021000504
161	0x3c852a2e	0.016255464
162	0xbd5933bd	-0.053027857
163	0xbccc4464	-0.024934955
164	0xbb932672	-0.004490667
165	0x3c8ccb22	0.017186705
166	0x3c465cba	0.012107069
167	0xbd8e9f30	-0.06963956
168	0xbe13aff3	-0.14422588
169	0xbda7c001	-0.08190919
170	0xbca4daf5	-0.020123938
171	0xbb48548b	-0.003056797
172	0xbdfaf305	-0.122533835
173	0xbd63e71c	-0.055640325
174	0xbd52b38c	-0.05144076
175	0xbda38b74	-0.07985583
176	0x3d012c33	0.031536292
177	0xbda14778	-0.0787496
178	0xbe04c58d	-0.12965985
179	0xbdacabfc	-0.08431241
180	0x3cfb0b20	0.030644953
181	0xbd220c43	-0.039562475
182	0x3d15b9b3	0.03655405
183	0x3dd6457c	0.10462472
184	0x3ca36150	0.019943863
185	0xbc0b2a84	-0.008494023
186	0x3db3b45d	0.08774636
187	0x3d830b1a	0.06398602
188	0x3d4f3e3d	0.050596464
189	0x3c377d5b	0.011199321
190	0x3c14a093	0.009071487
191	0xbd225270	-0.0396294
192	0x3ca379ca	0.019955534
193	0x3dac971d	0.0842726
194	0x3c873dcd	0.016508961
195	0xbda6f909	-0.081529684
196	0x3c8fbfcf	0.017547516
197	0x3d114a45	0.03547122
198	0x3d46e4d7	0.048558082
199	0xbc8ed352	-0.01743475
200	0xbb8449b5	-0.004037107
201	0xbc064137	-0.008194259
202	0xbd645e79	-0.05575416
203	0xbd19f223	-0.037584435
204	0x3d45f9be	0.048333876
205	0xbc5e61c5	-0.013573115
206	0x3d4eabc9	0.050456796
207	0x3c1a63cf	0.00942321
208	0x3d2378d2	0.039910145
209	0x3d95ad72	0.07308473
210	0x3c37b174	0.011211742
211	0x3dd76fec	0.10519394
212	0x3dccab4d	0.099936105
213	0x3b1f7893	0.0024333342
214	0x3db9d7d5	0.0907437
215	0x3d937152	0.071993485
216	0xbc608bc7	-0.0137052005
217	0x3cc4bc2e	0.024015512
218	0x3dd12935	0.10212938
219	0x3cb1a6b4	0.021685936
220	0x3d6331b0	0.055467308
221	0xbb176289	-0.0023099503
222	0x3e183412	0.14863613
223	0x3dad3ce8	0.084588826
224	0x3db100cc	0.0864273
225	0x3d0ad8c7	0.03389814
226	0xbd826462	-0.06366803
227	0xbe0f6cae	-0.14006302
228	0xbd0a3811	-0.033744875
229	0xbd83a115	-0.06427208
230	0xbd300541	-0.04297376
231	0xbd206803	-0.039161693
232	0xbdfca205	-0.1233559
233	0xbe090f21	-0.13384677
234	0x3d712795	0.05887564
235	0x3c94592a	0.018108923
236	0x3c8321fb	0.016007414
237	0x3d3694cb	0.044575494
238	0x3d102fcc	0.035201833
239	0xbdab1c75	-0.08355037
240	0x3cce2312	0.025163207
241	0x3c481cc7	0.012213892
242	0xbdb804de	-0.08985303
243	0x3d8f468b	0.06995877
244	0x3d223218	0.039598554
245	0x3db6f32e	0.089331016
246	0xbd2716ce	-0.040793233
247	0x3dbe611c	0.09295866
248	0xbd1c7e87	-0.038206603
249	0x3d437aa6	0.04772439
250	0x3d46597d	0.048425186
251	0xbce1b635	-0.027552703
252	0xbde8e38d	-0.11371527
253	0xbd8091c2	-0.06277801
254	0xbdb29806	-0.087204024
255	0xbd6be9d0	-0.057596028

bias f4 [32]
0	0xbbca793e	-0.006179004
1	0xbd335e53	-0.043791126
2	0xbe4954eb	-0.196613
3	0xbcf21cc4	-0.029554732
4	0x3e1e07b7	0.1543263
5	0x3d94080b	0.072280966
6	0xbd214736	-0.039374553
7	0x3ed4f6ad	0.4159445
8	0x3cd82fbb	0.026389947
9	0xbd5f2adc	-0.054484233
10	0xbbb683d7	-0.0055699158
11	0xbc9ecb4f	-0.019384054
12	0xbcc1f7c4	-0.023677714
13	0xbcda1830	-0.026622862
14	0x3d7ff346	0.062487863
15	0x3eabb829	0.3353894
16	0x3ea579c8	0.32319474
17	0x3d8e6381	0.069525726
18	0x3dd07a3f	0.101795666
19	0x3e8ea77e	0.2786216
20	0x3ea4bc8e	0.32175106
21	0x3e95a63f	0.29228398
22	0xbd91b1ba	-0.07113977
23	0x3cdacf15	0.026710073
24	0x3d357f6f	0.044310983
25	0x3deb013d	0.114748456
26	0x3d86e023	0.065857194
27	0xbd43e6f8	-0.04782769
28	0xbd653671	-0.055960122
29	0xbe12fea7	-0.14354955
30	0xbe44edaa	-0.19231287
31	0xbd7ee2e8	-0.062228113

weight f4 [5, 4608]
0	0x399d81ce	0.00030042086
1	0x3c750e73	0.014957058
2	0xbc8636ae	-0.016383495
3	0xbbbec631	-0.005821966
4	0x3b8ecffb	0.0043582893
5	0xbb243ec8	-0.0025061835
6	0x3c624fe4	0.013812993
7	0xbc806975	-0.015675286
8	0x3bbcbe0f	0.0057599614
9	0x3b8b9c58	0.004260581
10	0x3cdc2c68	0.026876643
11	0x3d39bc57	0.04534563
12	0x3ce39afa	0.02778386
13	0xbb920670	-0.004456334
14	0xbb5e258a	-0.0033896887
15	0x3c37f982	0.011228921
16	0x3bb8434b	0.0056232563
17	0xbc4c01d8	-0.012451611
18	0x3bda8301	0.006668449
19	0x3bc6c27b	0.0060656643
20	0xbc081671	-0.008306132
21	0x3b803a72	0.003913217
22	0x3abed104	0.0014558141
23	0x3c1db296	0.009625098
24	0x3acbe689	0.0015556376
25	0xba21eaaa	-0.000617663
26	0x3bfaddca	0.007655834
27	0x3c8c2fc9	0.01711263
28	0x3ca0afe4	0.019615121
29	0x3b908b92	0.0044111693
30	0x3bb0a2e5	0.0053905123
31	0x3c161a9f	0.00916162
32	0x3be7ace2	0.00707017
33	0x3ad21560	0.0016028099
34	0x3c6d3c9a	0.014479781
35	0x3c8d1553	0.017222082
36	0xbbe5d062	-0.0070133666
37	0xb9d8a666	-0.00041322707
38	0xbb8568a8	-0.004071314
39	0x3c2fbb59	0.0107258195
40	0xbaf13157	-0.0018401545
41	0x3c7317da	0.01483723
42	0x3c39a8f8	0.011331789
43	0x3bcd2a9e	0.006261184
44	0x3b8c6619	0.004284632
45	0x3c43061f	0.011903315
46	0x3c52cf4d	0.012866807
47	0x3c407482	0.011746528
48	0xb9c13a66	-0.0003685534
49	0xbb136d7d	-0.002249568
50	0x3c7ca666	0.015420532
51	0x3c5d61c6	0.013512081
52	0x3cb0b5b8	0.021571025
53	0x3c88f69e	0.016719159
54	0xba4713e1	-0.000759421
55	0x3c5f308f	0.013622417
56	0x3bd9b673	0.006644064
57	0x3c6e1715	0.01453187
58	0x3c94dbc0	0.018171191
59	0x3bb5906e	0.005540899
60	0xbb82388e	-0.003974027
61	0xba39a41f	-0.0007081646
62	0x3b8f37ce	0.004370666
63	0x3ca6869f	0.020327864
64	0x3c4c163f	0.012456476
65	0x3b85b9d7	0.0040809917
66	0x3a083262	0.0005195496
67	0x3bb699c8	0.0055725314
68	0x3c9bd0f6	0.019020539
69	0x3aaddd11	0.0013264735
70	0x3ba6a161	0.005085156
71	0xbba9f638	-0.0051868223
72	0x3ba17ac1	0.0049279635
73	0x3c174400	0.009232521
74	0xbb7b0997	-0.0038305277
75	0xbb8e79b3	-0.004348004
76	0x3b796138	0.0038052332
77	0xbc3dac19	-0.011576676
78	0x3bc63012	0.006048211
79	0xb95f3cc7	-0.00021289579
80	0x3c971685	0.018443355
81	0xbb053726	-0.002032706
82	0x3c22c13a	0.009933764
83	0xbb9040ae	-0.0044022417
84	0xbc54a407	-0.01297856
85	0x3aff0f8a	0.0019459587
86	0xb9ff3c1a	-0.0004868217
87	0xbc1875a5	-0.009305392
88	0xbb565357	-0.0032703483
89	0xbbb11566	-0.005404162
90	0x3c2d9447	0.010594434
91	0x3c6bc0b8	0.014389209
92	0xbbe1abe2	-0.006886945
93	0xbc88b6f6	-0.016688805
94	0x3c1d2e8b	0.009593616
95	0xbc406171	-0.011741982
96	0x38f8541b	0.000118412274
97	0xbcb54d32	-0.022131536
98	0xbc1200af	-0.008911296
99	0x3bad7ff4	0.005294794
100	0x3c9e106d	0.019294942
101	0xbbb373b8	-0.0054764412
102	0xbb5787ab	-0.003288726
103	0xbadb90d0	-0.0016751532
104	0x3bdb4e95	0.0066927173
105	0xbc45de31	-0.0120769
106	0xbc2b6474	-0.010460962
107	0xbbc250f0	-0.0059300587
108	0x3c113f81	0.008865238
109	0xbcc8b5a6	-0.02450068
110	0xbb356586	-0.002767892
111	0x3c6db62c	0.014508765
112	0x3c43719c	0.011928942
113	0x3c44584f	0.011983945
114	0xbbcd436a	-0.00626414
115	0x3c07adfe	0.008281229
116	0xbc7c5976	-0.0154021885
117	0xba278748	-0.0006390703
118	0x3b8eb549	0.004355107
119	0x3c16fbb6	0.009215286
120	0x3c0e733e	0.008694468
121	0x3b519ca4	0.0031984234
122	0x3b8d47f0	0.004311554
123	0xbc935c4e	-0.01798835
124	0xbc01c809	-0.007921227
125	0xbcbebc20	-0.023283064
126	0xbb83cb09	-0.0040220064
127	0xbc8e21e5	-0.017350147
128	0xbc78dc78	-0.015189283
129	0xbbbc2844	-0.0057421047
130	0x39e10266	0.0004291713
131	0xbc28d9c9	-0.01030583
132	0xbc50e0a5	-0.012748872
133	0x3bf37ab3	0.0074303984
134	0xbbb94b56	-0.0056547327
135	0x3b51e081	0.0032024684
136	0xbc1d6f9f	-0.009609132
137	0xbbdd0381	-0.0067448025
138	0xbcca623a	-0.024705041
139	0xbc510994	-0.012758631
140	0x3bff9b90	0.007800527
141	0xbb7efc41	-0.003890768
142	0xbbe01bd5	-0.0068392553
143	0xb928f60f	-0.00016113392
144	0x3d2db3a6	0.042407654
145	0x3cc8d68d	0.024516368
146	0x3b81af08	0.003957633
147	0xbbf72017	-0.007541667
148	0xbcfdc041	-0.030975463
149	0xbc21d795	-0.009878059
150	0xbc845693	-0.016154563
151	0xbcc08a85	-0.023503551
152	0xbcfe2886	-0.031025182
153	0xbc576a5e	-0.0131479185
154	0x3c8e654a	0.017382283
155	0x3cfbd61c	0.030741744
156	0x3c242349	0.010018178
157	0x3c85b0dd	0.016319687
158	0x3c846dad	0.016165579
159	0xbcdd9976	-0.027050715
160	0xbd057255	-0.03257974
161	0xbcf4685b	-0.029834917
162	0xbd0c3de1	-0.0342387
163	0xbd0e2b74	-0.03470941
164	0xbc44bf28	-0.012008466
165	0xbc7fdea1	-0.015617044
166	0x3add58b2	0.0016887395
167	0x3ca1a6de	0.019732889
168	0x3d05df9b	0.03268395
169	0x3d26cf55	0.04072507
170	0x3ce5fe0e	0.028075244
171	0xbc577b13	-0.013151902
172	0xbcaac35e	-0.020845111
173	0xbcb99ce0	-0.022657812
174	0xbd444da9	-0.047925625
175	0xbcbefa07	-0.023312582
176	0xbc89f06b	-0.016838273
177	0xbc18ab9c	-0.009318259
178	0xbbe44d83	-0.006967248
179	0x3c0a93e9	0.008458116
180	0x3cb70fae	0.022346344
181	0x3cf74fc3	0.0301894
182	0x3ba1fb59	0.004943293
183	0xbc957a5e	-0.018246826
184	0xbd324591	-0.043523375
185	0xbd436a55	-0.047708828
186	0xbd8e5944	-0.0695062
187	0xbce59f95	-0.028030196
188	0xbca2ea3c	-0.019887082
189	0xbc6a846a	-0.014313797
190	0x3bec3225	0.007208126
191	0x3c13f91a	0.009031558
192	0x3d24f75b	0.04027496
193	0x3c9eb4cd	0.019373322
194	0x3c8682dc	0.01641982
195	0x3af0627d	0.0018339899
196	0xbbdf4554	-0.0068136845
197	0xbd072aed	-0.03299992
198	0xbd01fd57	-0.031735744
199	0xbd0415b7	-0.03224727
200	0xbc63e732	-0.013910102
201	0xbbb35bec	-0.0054736044
202	0xbc643597	-0.013928792
203	0xbc3ac9ea	-0.011400679
204	0x3d3bd994	0.045861796
205	0x3cf8d8da	0.03037684
206	0xbc6e1538	-0.014531426
207	0x3a6a401f	0.00089359464
208	0xbc84509b	-0.016151717
209	0xbd3c69f5	-0.045999486
210	0xbd7e09e4	-0.06202115
211	0xbd69e795	-0.05710562
212	0xbcf2bfc5	-0.029632458
213	0xbc7e0b18	-0.015505575
214	0xbd0a1323	-0.033709656
215	0x3cd90252	0.026490364
216	0x3d3e4dd9	0.04646096
217	0x3bcac976	0.006188567
218	0x3c68ed81	0.014216782
219	0x3c23c9ad	0.009996814
220	0xbb598f39	-0.003319694
221	0xbcb75d0e	-0.02238324
222	0xbcfdec9f	-0.030996619
223	0xbccb0198	-0.024781033
224	0xbcbd2ae7	-0.023091746
225	0xbc91717f	-0.017754314
226	0x3c2bed0c	0.010493528
227	0x3d00b229	0.031419907
228	0x3d2269e3	0.039651763
229	0x3cb2e870	0.02183935
230	0x3cc8fe5d	0.024535352
231	0x3cff5902	0.031170372
232	0x38db587b	0.000104592145
233	0xbcaf2b1a	-0.021382857
234	0xbd551845	-0.0520251
235	0xbc016db4	-0.00789969
236	0xba33a85a	-0.00068533944
237	0xbc92ec61	-0.01793498
238	0x3c91d562	0.017801944
239	0x3d269f15	0.040679056
240	0x3d1a7984	0.037713543
241	0x3c7925c8	0.015206762
242	0x3c2d148c	0.010563981
243	0xba6d49de	-0.00090518396
244	0xbb9bc4af	-0.004753671
245	0xbd1ea4f0	-0.038731515
246	0xbd2d16b9	-0.042258
247	0xbbf0edcc	-0.0073525663
248	0xbc7fbba5	-0.015608703
249	0xbc27fa14	-0.010252494
250	0x3c52d5f9	0.012868398
251	0x3ccb57a6	0.024822067
252	0x3ce7b567	0.028284742
253	0x3c5054c6	0.012715524
254	0x3c538ed3	0.01291247
255	0x3caaa576	0.020830851

bias f4 [5]
0	0x3e139475	0.144121
1	0xbe1218cc	-0.14267272
2	0xbd30392a	-0.043023266
3	0x3db91aeb	0.09038337
4	0xbd229619	-0.039693926
