SimpleCNN.pt (torch, 35031 bytes, 4 tensors)

weight f4 [8, 3, 3, 3]
00000000: 6197 b83d f561 52bc e72c 863d 9934 4b3e
00000010: c9ee 483d 3ad6 6b3e dd36 163e c157 5a3e
00000020: 6d2f 013e 29d0 1cbe e500 1c3b dda0 fabb
00000030: deba 483b e1bb c3bc b798 91bd 9e74 34bd
00000040: bccc 92bd 857e d3bd 281b ed3d 5e92 953d
00000050: 52ef 12bd 54ad 06be aac5 633d 5d06 ecbd
00000060: b4f3 89bd 736b a9bd 8f0e 173c ada8 113f
00000070: b191 c43d 46ee 103f 8192 033e d205 db3e
00000080: 1712 e73d efa6 1cbf 1072 eabe 685d 1cbf
00000090: 0bcc d53e 964e 383d ccf7 bb3e 13af 3ebe
000000a0: e1cf 873e 58b7 69be 34ec b6be c687 aabe
000000b0: e294 27bf fa33 b13e 33c1 12bd 2dcf b83e
000000c0: bed0 0abc 9938 573e 155e 23be 5789 9cbe
000000d0: edff ae3d 812f 94be eaf6 c73e f088 d13c
000000e0: ab64 5f3d 0055 79be 13fb f63e 3d3e c9ba
000000f0: a4c1 1cbf 9d3f 5e3f 9dd9 edbd 93d2 903e
00000100: 1679 a2be 095a 55bd 9159 74be d9c7 933e
00000110: 1620 9dbe 508e 44bf afb5 343f 09bb cfbe
00000120: b2b2 843e 768d 2dbe f430 783d f23a cabd
00000130: a753 be3e 8c41 0bbd 62c6 2abf afc3 493f
00000140: 37e8 d5be 5f85 b8bc 3623 28be 09e4 8ebe
00000150: eb77 d33e 812b 65be 63ee 05bf 6e3c 113f
00000160: 02c8 ef3d 41cf a4bd 770e 233e 32a4 b4be
00000170: a822 82be 0400 9a3e c506 8fbe 2671 fabe
00000180: 88e8 d23e bb14 f13d c614 a7be 9a10 eb3d
00000190: 5468 e33d 411c 15be 6b2c c93e 70f7 1f3d
000001a0: 39e8 b5be 7162 293e b133 9f3e 1475 07be
000001b0: ac51 0e3e 7844 063d f918 433d 0a1b 203e
000001c0: c918 5d3e cc5f 66be 81dc be3b 8f26 8a3e
000001d0: 859d 7e3b 9ecb 293e 772d bebd ee6b afbd
000001e0: 1f83 8cbd 429d db3d 4836 233e 50d1 c4bd
000001f0: e3d3 903e 90ef 2dbe beea 1fbe fb93 f9bc
00000200: 75f7 033e d0a8 573e a1c7 82bd 3e90 17bc
00000210: 9377 473e 29c8 9a3e 75da 833d 889d dfbd
00000220: 52dd 443d 258a 2d3e a876 c5be 8cdf 33be
00000230: 6255 003e 5a0b 92be 7e41 c8bd 90fe 723e
00000240: 4737 28be be70 79bd 17de 8c3e 8cd5 33be
00000250: 2240 0a3e b91f d43e 7b33 8bbe cb6c 8e3e
00000260: dd31 863e 72db cebe f740 9cbe 0ad3 323d
00000270: fc3a f4be 6daa f1bd bed7 df3e 9444 afbe
00000280: 1e24 7dbd b918 d13e cc0c 3ebe 65e8 20bd
00000290: a166 bebe 208d 823e 9b04 3a3e 52ff 393e
000002a0: 2028 9bbe febb 46be eb9f 87be 7fd3 53bd
000002b0: df20 31bc 3950 eebd cda0 023f 0609 0c3f
000002c0: 8871 ec3e fc8e 5bbd 9f77 1dbe 2a33 003d
000002d0: bdee 89be 8cdd 21be 8d7f dabe 072a 2d3e
000002e0: c753 e93d 40e7 c13e c232 a5be 7b16 8dbe
000002f0: 36b1 7cbe 0b0e c4be 6f0e 28be 18bd 97be
00000300: 9fe0 88be a412 88be 864b 3ebc bf10 95be
00000310: a922 c1bd 1ac9 bcbd 3d99 f43d 9150 26be
00000320: 015c 2d3d af53 c3bd 627a de3d 3b2f b23b
00000330: b522 053e d988 21bc c0d7 3bbd 2d00 ee3d
00000340: 99dd 363e 5b57 893e bd4d 913e 3dc6 453e
00000350: f8d8 c43d 2a38 a33e ad77 9a3e c092 8c3e
0.09013248 -0.012840738 0.06551533 0.19844283 0.04905585 0.2303094 0.14669366 0.21322538
0.12615748 -0.15313782 0.0023804244 -0.007648571 0.003062896 -0.023893299 -0.07109206 -0.044056527
-0.07167956 -0.10326866 0.11577445 0.07303308 -0.035872765 -0.13152057 0.05560843 -0.11524651
-0.06735936 -0.082724474 0.00921978 0.56898004 0.09598101 0.56613576 0.12848856 0.42777878
0.11282747 -0.6119222 -0.45790148 -0.61080027 0.41757235 0.04499682 0.36712492 -0.18621473
0.26525787 -0.22823846 -0.35727084 -0.33306712 -0.6546155 0.34609967 -0.03582878 0.36095563
-0.00847262 0.21017684 -0.15953858 -0.30573532 0.08544908 -0.28942493 0.39055568 0.025577992
0.054539364 -0.24348831 0.4823843 -0.0015353631 -0.6123297 0.86815816 -0.11613772 0.28285655
-0.31733006 -0.052087817 -0.23862292 0.2886341 -0.30688542 -0.7677965 0.7058973 -0.40572384
0.25917584 -0.16948494 0.06059356 -0.09874524 0.37173197 -0.033998057 -0.6670896 0.78814214
-0.41778728 -0.022524534 -0.16419682 -0.27908352 0.41302428 -0.22379877 -0.52316874 0.56732833
0.1170807 -0.08047343 0.15923487 -0.3528152 -0.25417066 0.30078137 -0.27934852 -0.4891445
0.41193032 0.11771532 -0.32633036 0.11477776 0.111038834 -0.1456156 0.392917 0.039054334
-0.35528734 0.16541459 0.31094125 -0.13228256 0.13898343 0.03278014 0.047631238 0.15635315
0.21591486 -0.22497481 0.005824626 0.26982543 0.0038851213 0.1658158 -0.092860155 -0.08565508
-0.06860947 0.10723354 0.15938675 -0.09610236 0.28286657 -0.16985917 -0.15616891 -0.03046607
0.12887366 0.2106049 -0.063857324 -0.009250699 0.19479208 0.30230835 0.06438152 -0.109187186
0.04806263 0.16947229 -0.3856709 -0.17565745 0.12532571 -0.28524286 -0.09778117 0.2372992
-0.16427337 -0.060898535 0.2751319 -0.1756193 0.13501027 0.41430452 -0.27187714 0.27817377
0.26209918 -0.40401798 -0.30518314 0.043658294 -0.47701252 -0.11800084 0.43719286 -0.34232008
-0.061802022 0.40839174 -0.18559569 -0.03928413 -0.37187675 0.25498295 0.1816582 0.18163803
-0.3030405 -0.19407651 -0.26489195 -0.05171537 -0.01081106 -0.11636395 0.5102661 0.5470127
0.46180367 -0.053603157 -0.15377663 0.031298794 -0.26939955 -0.1580717 -0.4267544 0.16910563
0.113929324 0.37871742 -0.32265288 -0.27556214 -0.24676976 -0.38291964 -0.16411756 -0.29636455
-0.26733872 -0.26576722 -0.011614686 -0.2911434 -0.09430439 -0.092180446 0.119432904 -0.16241671
0.04232407 -0.09537446 0.108631864 0.005437759 0.13001521 -0.009859287 -0.045860052 0.11621127
0.1785797 0.2682446 0.28379622 0.19313903 0.09611696 0.31878787 0.3016943 0.2745571

bias f4 [8]
00000000: f72f 093f 4feb 8fbe 606c 203d 8431 03be
00000010: b9b4 213e 4867 fe3d dc20 aabc 9959 c73e
0.53588814 -0.28109214 0.039165854 -0.12811857 0.15791596 0.12422043 -0.020767622 0.38935545

weight f4 [5, 1568]
00000000: 229d bd3d 5022 613d 1eff 5b3d 48cf 873d
00000010: 7548 903d 9f46 af3d 7f0b 743d 8be1 ff3c
00000020: b146 893d d107 3b3d 6f26 2f3d 57fc 4c3d
00000030: 40b3 893c 8e44 573d b384 973d 5ea1 f43c
00000040: c43d b03c 506e ef3c f122 0a3d 4cc5 473c
00000050: 9d82 d53b 0cb2 2f3c 939e a4bc 0f4e 753a
00000060: 45f5 ebbb a1c9 083d 40b6 303d 5dc1 ee3c
00000070: 8279 303d d93d 173d 2773 e43c 3e62 1a3c
00000080: e124 053d dd0c 933c eab3 8fbc 8151 8cbc
00000090: 55c3 683c 98db ba3c 8f08 00bc 7393 263d
000000a0: cffc 8b3c d2bf 2a3c 3d15 763d a0e6 473c
000000b0: 2599 503d cc15 4a3c 23a7 ce3c 5b03 353c
000000c0: 1f06 90bc df83 57bc 4b4d bdbc 084b e6bc
000000d0: 60e5 f4bc 4995 843b e7fe c33b 0747 053d
000000e0: 47c1 583d 3a0e 4f3d 6165 3a3d f59b ba3c
000000f0: 4a5d d33b cb96 b9bc a543 4bbd 4939 86bc
00000100: 1db3 cbbc 5781 0dbb 400e 7abb 2969 bbbc
00000110: cf8d ab3c 31d4 2b3d 6fab 833d f629 233d
00000120: 1d78 9a3c cce1 c33b f892 1fbc 7d25 08bd
00000130: a3e1 33bd 5e97 58bd 5bbf 9bbc 1a5e a3bc
00000140: 69c1 3cbc 712f 63bc ba54 8dbc 5c7d 133d
00000150: fc65 813d cc0a 8f3d 969c ab3c 40e4 a4ba
00000160: 9092 06bd 91fc 29bd bb8c 04bd bb9d 8ebd
00000170: b745 1dbd 235d 6cbc b299 a7bb c65e 01bc
00000180: 3a08 a4bb 437f 953b 8103 143d bef8 9a3c
00000190: 9357 bf3c 98b4 94bc 1649 9dbc 7698 17bc
000001a0: e653 52bd c18a 1cbd 00cc a8bc 6bd1 1fbc
000001b0: bc02 143c 7346 05bd f056 72bc 7ea6 eabb
000001c0: 4974 653b 57e6 6f3b bf5b 4e3c e539 74bc
000001d0: 32a0 febc 0b86 0cbd 947c 3cbd 42b9 c7bc
000001e0: 3369 3fbd 4996 1fbd f13e b1bc eb8e 4ebc
000001f0: 8295 13bd 3bd2 a6bc 5489 f33c 90ff ae3c
00000200: 0c83 003b 8a50 e6bb 2076 8f3c 03b5 563c
00000210: 8995 1d3c aaf3 12bd 467f d4bc 0736 0abd
00000220: 08e2 e2bc 72a4 e2bc c791 113c b1a4 063a
00000230: 3eb2 223c c9d6 543c 9b33 c23a f0f0 e03a
00000240: 4f78 893c bbac 69ba 0348 0bbd 75a6 c8bc
00000250: ca1d 6abc ecdd 8dbc b243 fe3a 6fc4 d63a
00000260: 83d6 93bb 8f60 d53c d4c5 cabb aa84 af3c
00000270: 9d9b c53c 00d9 22bc d202 b53c 79b9 4aba
00000280: 6103 8bbc 0f33 b13a dab2 733c d641 553c
00000290: 4a82 31bc 1a8c dcbb aa1d ad3b 6651 063c
000002a0: 62a7 18bc a0d5 f2ba fa3d 443d 2c55 673c
000002b0: a197 e63c 24f2 873c 1d2f c43c a38e 933b
000002c0: dcd2 93bb e1f1 223d 924d 793b 7850 a2bc
000002d0: 2dc3 fdbb 0cfd 05bd cce5 67bc a8d2 163b
000002e0: 1c6a 4f3d ca8d ea3c ee4e f23c 7dbc 0a3d
000002f0: 3610 e53c 3f04 83bc fa76 ac3c 4b06 003d
00000300: 0736 d3ba 0450 2b3d de4e 9f3b 5478 e9bb
00000310: 387d 8a3d e70d 693d f5a0 babb be13 0bbd
00000320: a314 15bd ddf6 69bd b782 c2bd bd7f 32bd
00000330: 1083 d2bc 02f9 2abc 6fbb 9f3c f51f 693c
00000340: d914 6d3d 00d5 2c3d 3636 cb3d a3a9 a83c
00000350: cffa a0bc 9f57 95bd 2414 81bd 8d2f 2bbd
00000360: 237d 9bbd 63fd 6bbd 7b98 07be a94f 47bc
00000370: 56f4 d9bc 1f92 b0bc d314 a3bc 102b 983c
00000380: 8106 f73b 5380 523b 568a af3c c558 adbc
00000390: 072a 9ebd fe81 08be e67f 87bd bef4 07be
000003a0: faee 0dbe 8bf7 bcbd d558 23bd 5f67 3ebd
000003b0: d921 bd3c d2e2 0c3d fbf0 243d 5a1c df3c
000003c0: 441c bf3c 4bcc f8bb 8f37 5dbd 00ec d5bd
000003d0: 53ab ebbd 89b7 12be d904 33be 2a8e c2bd
000003e0: 247e 263c 1bdf 1e3d ca09 e23c be50 aa3d
000003f0: 75b7 643c c9f9 f1bb 46a2 033c 57ac 7bbd
0.09258486 0.054964364 0.053710096 0.06631333 0.0704507 0.08558392 0.059581276 0.031235477
0.067029364 0.04566175 0.042761263 0.050045338 0.016809106 0.052555613 0.07398357 0.029862102
0.021513827 0.029227406 0.03372473 0.012193035 0.0065158145 0.010723602 -0.020095145 0.000935764
-0.0072008693 0.033395413 0.043142557 0.029144937 0.04308463 0.036924217 0.02788694 0.009422837
0.032505874 0.01795047 -0.017541844 -0.017128708 0.014206727 0.022809789 -0.0078145405 0.040667962
0.017088322 0.01042171 0.06007885 0.012200981 0.0509273 0.012334298 0.025226181 0.011048163
-0.017581044 -0.013153999 -0.023108145 -0.02811195 -0.02989453 0.0040461165 0.0059813145 0.03253844
0.0529187 0.050550677 0.04550684 0.022779444 0.00645033 -0.022654912 -0.049625058 -0.016384738
-0.024865681 -0.0021591985 -0.0038155466 -0.022877293 0.020941643 0.04195041 0.06429183 0.03983494
0.018856103 0.005977845 -0.00973963 -0.033238877 -0.043916356 -0.05287873 -0.019012144 -0.019942332
-0.011520722 -0.013866291 -0.017252315 0.036008224 0.0631828 0.06984481 0.02094869 -0.0012580231
-0.032854617 -0.04150063 -0.032360774 -0.069636784 -0.038396563 -0.014426502 -0.0051147575 -0.007896131
-0.0050058635 0.00456229 0.036136154 0.018917438 0.023357188 -0.01815252 -0.01919989 -0.009252658
-0.051349543 -0.038218264 -0.020605087 -0.009754519 0.009033855 -0.03253789 -0.014791235 -0.0071609607
0.0035011938 0.00366058 0.012595116 -0.014906381 -0.031082246 -0.03430752 -0.046017244 -0.02438033
-0.046731185 -0.038961682 -0.021636458 -0.0126073165 -0.036031254 -0.020363918 0.02972857 0.021362096
0.001960936 -0.007028644 0.017512381 0.01310468 0.0096181715 -0.035876907 -0.025939595 -0.03374293
-0.02769567 -0.027666304 0.008884854 0.0005136235 0.009930192 0.012990662 0.0014816405 0.0017161649
0.016781 -0.00089139835 -0.034004223 -0.024493435 -0.014289329 -0.017317735 0.0019398837 0.0016385446
-0.004511656 0.02604702 -0.0061881337 0.021425564 0.024122054 -0.009939432 0.022096071 -0.0007733326
-0.016969385 0.0013519245 0.0148741845 0.013016185 -0.010834286 -0.0067305686 0.0052830772 0.008198118
-0.009317251 -0.00185268 0.047910668 0.014119428 0.028148474 0.016594954 0.023948247 0.0045030876
-0.0045112204 0.039781455 0.003804062 -0.019813761 -0.007744214 -0.032712027 -0.014153909 0.0023013745
0.050638303 0.028632063 0.029578652 0.033871163 0.027961832 -0.015993236 0.021052826 0.031256
-0.0016114124 0.041824356 0.0048616966 -0.00712494 0.06762165 0.056898024 -0.005695457 -0.033954374
-0.036396634 -0.057120193 -0.09497588 -0.043578852 -0.025697261 -0.010435345 0.019498555 0.014228811
0.05788121 0.04219532 0.09922449 0.020588702 -0.019650845 -0.07292103 -0.0630267 -0.041793395
-0.07592227 -0.057614695 -0.1324176 -0.012164989 -0.026605766 -0.021554051 -0.01990739 0.018575221
0.007538617 0.0032119944 0.021428268 -0.021160493 -0.0772286 -0.13330838 -0.066161916 -0.13276955
-0.13860694 -0.092269026 -0.03987964 -0.0464853 0.023087429 0.034396 0.04026888 0.027235199
0.023328908 -0.007592713 -0.054008063 -0.10445404 -0.11507287 -0.14327826 -0.17482318 -0.09499772
0.01016191 0.03878699 0.027592558 0.083161816 0.013959755 -0.007384513 0.0080342945 -0.061443653

bias f4 [5]
00000000: 84ec 273d 29b8 9abe 3fb8 babd 016a 0b3e
00000010: f7a0 223e
0.040997043 -0.30218628 -0.091171734 0.13614656 0.15881716
